models_subset/edge_time_sage_subset.pt (torch, 26877 bytes, 5 tensors)

mlp.0.weight f4 [64, 25]
000000 d3 25 78 3d 57 04 08 3e c6 af 3d 3e 8f f9 81 3d
       0.060582947 0.13282906 0.18524083 0.06346428
000010 8c 15 e3 bd d5 a1 84 bd bf 2d 0d be be 4f 2a bc
       -0.11088094 -0.064761795 -0.13786982 -0.010394989
000020 46 7d 98 3a 38 ed b4 3d 0c 0b c4 bc 45 36 0d bc
       0.0011634014 0.088343084 -0.023931049 -0.008618896
000030 1b 47 3f be ee 4b 9d bd 4b 51 0a 3e 19 59 30 3c
       -0.18679468 -0.07680498 0.13507573 0.01076343
000040 b1 d3 a6 bd 1f 69 33 be b9 e4 52 be 1e 5c 34 bd
       -0.08145846 -0.1752057 -0.20595063 -0.044033162
000050 80 96 26 be 6a cb 21 be cc 36 cc bd 0e 65 a3 bc
       -0.16268349 -0.15800253 -0.09971389 -0.019945648
000060 d1 22 76 3d b5 bb d1 bc d0 91 ac 3c 4a ba 4c be
       0.060091797 -0.025602201 0.021065623 -0.19992939
000070 ac ee 16 3d 3a fe 43 be 8b 1f bd 3d e9 25 2f 3e
       0.03684871 -0.19139948 0.09234532 0.17104305
000080 a0 e7 66 bc 8c bf 89 bd 18 5a c3 3c 0b 6a 0b 3e
       -0.01409331 -0.06725988 0.023846671 0.13614671
000090 7d 11 80 3d 6d 8a bc bd b3 22 a6 3d 7a da 12 be
       0.062533356 -0.0920609 0.08112087 -0.14341155
0000a0 28 42 32 be 0c 0f 4f 3d 46 57 d3 3d f8 d0 54 bd
       -0.17408049 0.05055146 0.103193805 -0.0519571
0000b0 0d 52 08 be 50 c1 0e 3c fb 06 1d be 9a e0 ed 3d
       -0.1331255 0.0087130815 -0.15334694 0.11615105
0000c0 6e 4a 93 3d 0c bd 17 3d b9 ef 14 3e f8 75 b7 bd
       0.07191931 0.037045524 0.14544572 -0.08958048
0000d0 e9 25 c0 3d 84 de 86 3d 0f ef 46 be d6 73 8a 3c
       0.09382231 0.0658541 -0.19427131 0.016900938
0000e0 04 ce 11 3e a3 96 8a 3c 48 b2 65 3d dc 91 78 bd
       0.14238745 0.016917532 0.056078225 -0.060685977
0000f0 c8 7a 3e be 27 b8 06 3e 10 30 19 be 5e 6b 32 3d
       -0.18601525 0.13156186 -0.1495974 0.043559425
000100 ea 2d e8 bd 92 52 00 3e 4b 05 2a 3e a2 01 c6 3d
       -0.113368824 0.12531498 0.16603582 0.0966828
000110 90 43 23 be 16 df f3 bd 3d 68 3b 3d a4 cb 99 ba
       -0.15943742 -0.11907785 0.045753706 -0.0011733663
000120 89 36 34 3e bd 99 51 be 44 63 35 3d 0e 28 3b be
       0.17598929 -0.20468803 0.04428412 -0.18276998
000130 f2 3b 3e be 9a 86 1b 3e 83 0c b9 bd 3a 6e fd bd
       -0.18577555 0.15188065 -0.090355895 -0.1237454
000140 64 16 1b 3e a8 88 84 3c 4d db 12 be 30 58 2b be
       0.1514526 0.016178444 -0.14341469 -0.1673286
000150 80 67 11 bd 62 5b b1 3d 74 59 63 bd 1d 8e f0 bd
       -0.035499096 0.08660008 -0.05550523 -0.11745856
000160 40 ef e8 bd bb aa 3f 3e 10 8d 83 bd 30 70 56 bc
       -0.11373758 0.18717472 -0.0642339 -0.013088271
000170 58 0e 08 3d 60 60 4c 3e 1d 9b 2b be 04 b1 5c 3d
       0.033216804 0.19958639 -0.1675839 0.053879753
000180 62 a7 02 be 38 d8 14 bd 46 33 19 be 8c 82 2e bd
       -0.12759164 -0.036339015 -0.14960966 -0.042604968
000190 6c 62 5c 3d 9d b5 26 3e f5 b8 84 3d cd 3c 49 3e
       0.0538048 0.16280217 0.0648059 0.196521
0001a0 27 c3 38 3e 96 91 38 be 87 ca 24 3e 75 19 b3 3c
       0.18043195 -0.18024287 0.16092883 0.021862725
0001b0 d8 f3 33 3d 0a 9a 27 3e 4a e4 3e bd 2b 8c de 3d
       0.04393372 0.16367355 -0.046604432 0.10866579
0001c0 12 47 0d 3e ba eb 77 bb 60 10 ef bd 7d ad 35 3e
       0.13796642 -0.0037829713 -0.11673045 0.17741962
0001d0 aa e2 3c 3e 2d 20 15 bd 97 16 26 3e 54 69 fe 3d
       0.1844584 -0.03640764 0.16219555 0.124224335
0001e0 1e 6d 90 3d ff 1e 43 3d 53 a8 06 bd 65 e3 d1 bc
       0.070520625 0.047636982 -0.03287537 -0.025621125
0001f0 29 35 19 be 29 ce 24 3d 53 c1 47 3e 42 3b 3d 3e
       -0.14961685 0.040235672 0.19507341 0.18479636
000200 b1 5c 2c be 4a fc 2d be 6e e7 bf 3d 9f aa 22 be
       -0.16832234 -0.16990772 0.093703136 -0.158854
000210 5c 3b 53 3e 67 f5 9c 3d 83 d5 09 be 16 9b 12 3d
       0.20628113 0.07663994 -0.13460355 0.035792433
000220 dc 08 57 bd 73 4a 56 3e 6b 7d e2 3d 4f 69 37 3c
       -0.052498683 0.20926838 0.11059078 0.011194541
000230 75 66 4c bc 9b eb 23 3e 0c a0 83 3c 8d fd 1b 3e
       -0.0124756 0.16007845 0.016067527 0.1523344
000240 4d d9 41 be 18 fa e8 bd 90 78 fa bd d5 4f 41 3e
       -0.1893055 -0.113758266 -0.12230027 0.1887811
000250 24 e1 0d 3e f3 a2 34 3e eb 23 23 3d 28 4c 19 3d
       0.13855416 0.17640285 0.039829176 0.037426144
000260 5f 27 43 bd 7b df 04 3e 6b 90 3b be e7 17 85 bd
       -0.04764497 0.12975876 -0.1831681 -0.064987
000270 21 e9 d9 bd 69 37 aa 3c ec 67 d2 bd 89 e1 18 be
       -0.10640169 0.020778375 -0.10273728 -0.14929785
000280 be 55 f1 bd e7 2b 1b 3e e7 13 2b 3e a7 7b e7 3d
       -0.11783932 0.15153466 0.16706811 0.11302882
000290 36 60 f3 3d 63 03 0a be 87 0b ac 3d 56 04 1e 3e
       0.11883585 -0.13477854 0.08400636 0.15431342
0002a0 5c 06 fd bd a1 f4 54 bc 55 48 bf 3d 05 6c 9d 3d
       -0.123547286 -0.012997777 0.09339968 0.07686619
0002b0 af e8 25 3e 08 ff 8a 3c 38 e4 b2 3c dd 6d eb bd
       0.16202043 0.016967312 0.021837339 -0.11495564
0002c0 73 af 1c 3e 00 18 3b 3d bd 4a 4b be 46 57 8e bd
       0.15301304 0.045677185 -0.19852729 -0.0695024
0002d0 52 34 87 3d 7f 1e 45 be 18 4a 97 3c 00 61 0c bc
       0.06601776 -0.19249915 0.018467948 -0.0085680485
0002e0 d5 fd 27 be c1 48 07 3e 3e 58 28 be 68 d0 9d 3c
       -0.16405423 0.13211347 -0.16439912 0.019264415
0002f0 13 0f bd bd 50 45 d9 3c ba ae 1b be e6 86 9a 3d
       -0.09231391 0.026522309 -0.15203372 0.07545261
000300 0a 0c fc bd 14 c9 27 bd ed ad c0 bd 1d e3 ee bd
       -0.12306984 -0.040963247 -0.09408174 -0.11664412
000310 a1 a9 38 3e 18 d8 5a bd c0 27 33 bd 10 23 8c bd
       0.18033458 -0.05342874 -0.04373908 -0.06842625
000320 ba 6c 4c be ec 04 72 3d b6 a7 e7 3d 52 69 38 be
       -0.19963351 0.059086725 0.11311285 -0.18008927
000330 2d 87 2f 3e 4c da 4f 3d ac 32 5f bd 40 3f 4b be
       0.17141409 0.050745293 -0.054491684 -0.19848347
000340 b0 ad 98 3c 4b d0 07 3e b6 70 aa 3d d8 fb 36 3d
       0.018637508 0.13263051 0.08322279 0.04467377
000350 e6 07 ac 3d 27 4f c3 bd ce c2 86 3d 25 ea 10 be
       0.08399944 -0.095365815 0.06580125 -0.14151819
000360 b0 5d 8b 3c 08 3d 03 bd ae e0 cd 3d 87 3c b9 bd
       0.017012447 -0.032040626 0.1005262 -0.09044748
000370 2d 8d 16 3e a0 c2 9d bd 16 98 1a be 30 34 c1 3c
       0.14702292 -0.077031374 -0.15097079 0.023584455
000380 68 be 14 3d 01 11 cb bd ca c1 07 3d 20 b8 35 bc
       0.036314398 -0.099153526 0.033143796 -0.011091262
000390 50 16 38 bc 00 1a 6a bd fd ad bb bd 20 b1 25 bd
       -0.011235788 -0.0571537 -0.09164045 -0.040452123
0003a0 7e a6 27 3e f2 bc ae 3d 68 db f6 3d 0c 41 5a 3d
       0.16372105 0.08532132 0.12053567 0.05328469
0003b0 a5 e9 38 3e 44 0b 52 3d 85 c5 f4 3d b8 7b 4b 3e
       0.18057878 0.051280275 0.11951736 0.19871414
0003c0 31 6d bc 3c 6d 8b ab bd b0 64 7b 3c 80 5e 64 3c
       0.023001285 -0.08376203 0.01534383 0.013938546
0003d0 c6 eb 80 bd 58 75 c3 3c e0 60 d5 bd 44 6f 4a 3e
       -0.0629497 0.023859665 -0.10418868 0.19769007
0003e0 ce 8a 92 3d 5c ec 51 3e 92 82 5c bd e0 94 43 3e
       0.07155381 0.2050032 -0.05383546 0.1909976
0003f0 bd 17 29 3e f7 84 36 3e b1 5a 41 3e 27 38 48 3e
       0.16512962 0.1782416 0.18882252 0.1955267

mlp.0.bias f4 [64]
000000 0d 49 f6 bb 2d be 6a bd fe 27 82 3c c7 5d 0f 3e
       -0.0075160326 -0.057310272 0.01588821 0.14000617
000010 28 b2 27 be d2 ad d1 3c 89 dc f5 bd 45 a7 14 be
       -0.16376555 0.02559558 -0.12004954 -0.14516933
000020 60 2b 1b bd 14 db 91 3d 1f 62 0a be de dd 09 3d
       -0.037883162 0.07121864 -0.13513993 0.033658855
000030 0d 31 03 be 21 31 ee 3c ca 98 da 3c 76 73 2f 3e
       -0.1281168 0.02907616 0.026684184 0.17133889
000040 4e a2 1d bc e3 03 e7 3d f9 10 42 be 69 99 8f bd
       -0.009621216 0.11280038 -0.18951787 -0.070116825
000050 00 35 e8 bd 9f 66 09 3e d9 08 01 3e 77 16 37 3e
       -0.11338234 0.13418053 0.12601031 0.17879663
000060 fc a0 16 3e 83 f5 13 3e 8f 11 16 be 35 35 07 be
       0.14709848 0.14449124 -0.14655136 -0.1320389
000070 b1 35 62 bd 68 3d 0f be f9 a5 f3 bc 2b 6c f7 bd
       -0.055226985 -0.13988268 -0.029742228 -0.12081178
000080 83 b7 31 be 35 1a 7a 3d ca 5d ac 3d 4b 80 21 be
       -0.1735516 0.06106015 0.08416326 -0.15771596
000090 70 00 0c 3e 53 8f 1b 3e 2e f6 41 be 90 ce 91 bd
       0.13672042 0.15191393 -0.18941566 -0.07119477
0000a0 ec 88 cb bd 06 9e 40 3e d1 8c e3 bd ae 9f a2 bc
       -0.09938225 0.18810281 -0.11110843 -0.019851532
0000b0 79 db dc 3d e6 aa da bd db 42 2e 3e 87 f4 34 bc
       0.107840486 -0.106771275 0.17017691 -0.011044628
0000c0 b3 a7 e4 bd 7e dd 01 be e7 d6 3e 3d d1 10 dd bc
       -0.111647986 -0.12682149 0.046591666 -0.026985558
0000d0 f6 9a 3b 3e c2 c4 d3 3d ab 85 2c bd 3d 0d 01 be
       0.18320832 0.10340263 -0.042119663 -0.12602706
0000e0 ee b8 7d 3d 83 f7 e9 bd 68 0a 30 3e fa 1e 04 be
       0.06194394 -0.11424162 0.1719147 -0.12902442
0000f0 dd d8 12 bd 27 16 40 3e ee 8a 10 be 49 95 ca 3d
       -0.03585135 0.1875845 -0.14115497 0.09891755

mlp.2.weight f4 [64, 64]
000000 ea 94 93 3d a8 22 c2 3d f4 78 f4 bd 00 d0 ee 3d
       0.072061375 0.094792664 -0.119371325 0.116607666
000010 48 9d b6 bc 3c c8 c9 3d b4 c5 f8 bd 76 f4 d7 3d
       -0.022291794 0.09852645 -0.12147084 0.10544674
000020 a0 41 bd bc d8 3b e2 3d 88 55 fc 3d 4e e7 c7 bd
       -0.023102582 0.110465705 0.12321001 -0.09760915
000030 dc 53 5c 3d 50 b1 85 bc ac 23 1c bd 10 a7 3b 3c
       0.053790912 -0.0163199 -0.038119957 0.011453405
000040 78 95 a3 3c 20 db b0 bd f8 b7 a3 bc da df 9f bd
       0.019968733 -0.08635545 -0.019985184 -0.07806368
000050 38 59 cc 3c 40 20 8d bd 78 d3 9d bd b0 cd 94 3c
       0.024944887 -0.06890917 -0.0770635 0.018164486
000060 e0 99 c1 3d f8 4a fd bc c8 c9 ff bc d0 73 17 3c
       0.094531775 -0.030919537 -0.031224146 0.00924392
000070 94 8f eb bd 94 5e 08 bd 0e d5 a6 bd b6 19 f1 3d
       -0.11501995 -0.03329332 -0.08146106 0.11772482
000080 b8 1c 6a 3d 64 13 14 3d aa 90 be bd 60 a6 a5 bc
       0.057156295 0.036151305 -0.09304936 -0.020220935
000090 00 b5 b1 3b 18 91 80 bc 00 40 1b 3b a8 17 17 bd
       0.005423188 -0.015694186 0.002368927 -0.036887795
0000a0 a0 0c 11 bc 42 4c 94 3d 2e 81 81 3d 0e 77 a9 3d
       -0.008853108 0.072411075 0.06323467 0.08274661
0000b0 32 ff dd bd 60 8a 99 3b 8e c8 d9 3d 40 04 98 3d
       -0.1083969 0.004685685 0.10633956 0.074226856
0000c0 00 54 1c 3c e6 1f b2 bd 88 99 81 bd c0 f4 4d 3b
       0.009541512 -0.086974904 -0.06328112 0.00314264
0000d0 ee 40 f1 3d 48 92 a2 bc f0 f5 a2 3c 20 2f 4c bc
       0.117799625 -0.019845143 0.019892663 -0.012462407
0000e0 ae 77 eb bd f2 67 d5 bd a0 b3 d4 3d 0c aa 45 3d
       -0.114974365 -0.104202166 0.10385823 0.048257872
0000f0 76 a5 c0 bd a4 c5 b1 bd b0 d6 82 3d 60 87 fe bb
       -0.09406559 -0.08680275 0.06388605 -0.007767603
000100 37 5e 4f 3d ce e7 ec 3d 96 64 b4 bb b8 16 e7 3d
       0.05062696 0.11567651 -0.005505155 0.1128363
000110 2c 0b 07 bc 70 29 51 bd 36 ca 9a bc 4e da f8 bd
       -0.00824241 -0.05106491 -0.01889525 -0.12151013
000120 b4 2a 9c 3d cc 8e ee bd 7c 97 e4 3d 93 af fe bd
       0.076253325 -0.1164833 0.11161706 -0.12435832
000130 4c 67 a2 3d 31 a6 f3 bd 19 54 70 3d 36 5b c3 bd
       0.079298586 -0.11896933 0.05867395 -0.095388815
000140 2c 52 37 bd 1a ad a0 3d e5 f3 42 3d a8 44 14 bd
       -0.0447561 0.078455165 0.047595877 -0.03619829
000150 8a 29 c9 3d 68 47 21 3c 97 1d 19 3d f6 fc 02 be
       0.09822376 0.009843685 0.037381735 -0.1279181
000160 d4 67 9e 3d 78 62 e5 bc ea 22 60 bd e2 22 fc bd
       0.077346474 -0.028001055 -0.054720797 -0.12311341
000170 62 9c c6 bd 24 8f 82 3d 6b 93 27 3b 24 4e 4b 3d
       -0.096977964 0.06374958 0.0025570046 0.049635068
000180 64 f1 fc 3d 29 28 a0 bd f6 6b 86 3d 1e f3 ba bd
       0.12350729 -0.0782016 0.06563561 -0.09128402
000190 55 34 f7 3c c6 0d 54 3d 80 6c f4 bd d7 14 05 be
       0.030176321 0.051770948 -0.11934757 -0.12996231
0001a0 27 20 d6 3c fb 54 ae 3d e6 3b 02 be 80 d2 b3 3d
       0.026138378 0.085123025 -0.12718162 0.08780384
0001b0 a5 b0 13 3b 1b 83 c8 bd d6 5d 82 3d 30 15 de bd
       0.0022535708 -0.097906314 0.06365554 -0.10843885
0001c0 28 8d d6 3d e8 ac fa bc 52 7b 41 bd 3a 87 54 bd
       0.10476142 -0.030600026 -0.047236748 -0.051886775
0001d0 2b a4 a8 bd 4e 43 95 bd 44 8a ce bd 95 7f 95 bd
       -0.082344376 -0.07288228 -0.10084966 -0.07299725
0001e0 c5 ae 05 be 6c b3 d5 bd 1f b6 99 3d 82 05 b4 bc
       -0.1305495 -0.10434613 0.0750544 -0.021975283
0001f0 c3 50 1a bd 43 c2 16 bd ec 82 a9 bd 60 1b bd bd
       -0.037674677 -0.036806356 -0.082769245 -0.09233737
000200 3b 5c 78 bd dc 21 bc bd 57 1c be bd aa 58 9d 3d
       -0.060634833 -0.09186146 -0.09282749 0.07682927
000210 32 6a c8 bd 43 db 66 bd 12 3c ff 3c ac 2d 39 bd
       -0.0978588 -0.056361448 0.031156573 -0.04520957
000220 80 51 7c bd b0 ab 17 bd 21 9f 19 3d a0 46 c8 bd
       -0.061601162 -0.03702897 0.037505273 -0.09779096
000230 60 14 50 bd 30 a7 c7 bc 17 be 13 bc 94 46 cd bd
       -0.05080068 -0.024371713 -0.009017489 -0.10023227
000240 76 db 08 3d 17 c6 2d bd 52 92 48 3c d1 aa ad 3b
       0.03341242 -0.04242524 0.012241917 0.005299904
000250 48 be 96 3d d0 82 d5 3d 98 42 b8 3d 41 24 d8 3d
       0.07360512 0.10425341 0.08997077 0.1055379
000260 f0 91 4e 3d 15 ed 7f 3d b4 87 cb bd 00 c4 22 39
       0.050432146 0.06248196 -0.09937993 0.0001552254
000270 2b 85 08 bc 83 d2 99 bc 8f 6b 40 3d 79 76 ef 3d
       -0.008332531 -0.018777138 0.046977576 0.11692519
000280 8e 9c e5 bd 3b ff 8a bd cc 44 a7 3a 7a 6d 9a 3d
       -0.11211501 -0.067869626 0.0012761592 0.07540412
000290 f1 53 e7 3d 8e 0c 82 bd da db 01 bc 6f 34 a8 3d
       0.112953074 -0.06350051 -0.007925952 0.08213126
0002a0 a8 ed ac 3d e7 b5 a0 3c 94 a2 3c 3d c2 3e 92 bd
       0.08443767 0.019617988 0.046053484 -0.07140876
0002b0 7a 85 28 bd e4 63 ca bd 69 e3 53 bd 3d 5e 4b bc
       -0.04114292 -0.09882334 -0.051730547 -0.012412605
0002c0 0c 5d 85 bd 1e c2 a5 bd c1 41 b2 bd cd 85 ca 3d
       -0.06511888 -0.080936655 -0.08703948 0.09888802
0002d0 76 dd 76 bd 7a 92 3f bd 2d dd c2 3d 89 ef 6a 3d
       -0.060269795 -0.04677055 0.09514842 0.057357345
0002e0 01 03 ed bd 8a f7 8b bd 03 18 e1 3d d6 ce d4 3d
       -0.115728386 -0.06834324 0.10990908 0.10391013
0002f0 ae 0e 83 3d 7d e0 04 be 9c b6 79 bd e8 a1 91 3c
       0.06399284 -0.1297626 -0.060965165 0.017777398
000300 2c 29 9f bd 78 03 38 bd 2c 81 8e bd 53 65 c4 3d
       -0.07771525 -0.044925183 -0.06958231 0.095896386
000310 cc e1 c4 3d 01 b7 f3 3d 45 32 d2 bd 6a b7 9d bd
       0.0961338 0.119001396 -0.102634944 -0.07700999
000320 92 7f d1 bd 18 c0 9f bc 56 1e bb bd 74 d2 6e bd
       -0.1022941 -0.019500777 -0.091366455 -0.058306172
000330 86 61 da bd 0c 2e 51 3d 39 67 5e 3c 6d 87 f2 3d
       -0.10663132 0.051069304 0.013574415 0.11842237
000340 e7 22 aa bc 69 bf 9f bd 96 f5 9f 3d 47 97 b5 bd
       -0.020768596 -0.078001805 0.07810514 -0.088667445
000350 50 0e 77 bc 95 d6 c9 bd a1 39 94 bc 77 59 bd 3d
       -0.015079096 -0.098553814 -0.018093886 0.0924558
000360 ff 8d f7 3d c4 da 87 bc 4a be 86 3d 6e 90 e0 3d
       0.120876305 -0.016583808 0.065792635 0.10965048
000370 90 12 81 3d 7e 33 5b bc 28 1a ca bc 0a 87 d9 ba
       0.06302369 -0.013378976 -0.024670675 -0.0016596031
000380 d8 5a ba bd 0b a3 1c 3d 7b 43 d6 3d b0 8c 86 bd
       -0.09099358 0.038241427 0.1046209 -0.06569803
000390 be 06 68 3d cd 65 c5 3c 2b 39 27 3c 0a 70 e2 3d
       0.056647055 0.024096394 0.010206501 0.11056526
0003a0 c0 66 aa 3d 9d 58 62 3d e5 cf 8f 3d 1e fb 07 b8
       0.08320379 0.05526029 0.070220746 -3.242038e-05
0003b0 33 cc 9f bd 77 a6 ba bc be 4d e2 3d 83 a7 02 3e
       -0.0780262 -0.022784455 0.110499844 0.12759213
0003c0 9c c3 e4 bd 04 1c 5b bd f9 e3 91 3d 2f eb e3 bd
       -0.11170122 -0.053493515 0.071235605 -0.11128842
0003d0 1d 13 08 3e 6b ae c5 3d a1 80 84 bc a4 45 7b bc
       0.13288541 0.09652408 -0.016174616 -0.015336428
0003e0 e1 a8 d4 bc 23 05 90 bd d5 f8 c6 3d d9 3e 5c 3d
       -0.025959434 -0.0703223 0.0971543 0.053770874
0003f0 06 8d 11 bd 22 97 08 bd 4e 25 81 bd ab 7e b4 3b
       -0.03553488 -0.033347256 -0.063059434 0.005508264

mlp.2.bias f4 [64]
000000 2c 39 ea bd 30 c7 8c 3d 69 45 c9 3d 5f 62 e3 3d
       -0.11436686 0.068739295 0.09827692 0.11102747
000010 f8 f0 07 3e 0d e1 85 3d 71 cb 83 3d 7a a5 8b bd
       0.13275516 0.06537066 0.06435288 -0.068186715
000020 75 1a 8c bc 8a d7 83 3c b8 b6 f1 bd 2c 6d 03 bd
       -0.01710246 0.016093988 -0.11802429 -0.032086536
000030 74 59 92 3d 7c 76 35 3d 98 eb f3 bd 07 c9 ac bd
       0.07145968 0.04430245 -0.1191017 -0.084367804
000040 fa d7 f5 bd ab 36 41 bc 34 67 cf 3d 87 09 ad 3d
       -0.12004085 -0.011792819 0.10127106 0.08449083
000050 88 d5 bf bd b4 b5 47 3d ab 7b 2f 3c 60 d5 0c bd
       -0.093669 0.04875727 0.010710637 -0.034383178
000060 d0 62 85 3d e8 7e ef 3b 38 17 a4 bd 09 3d 32 3d
       0.065129876 0.0073088296 -0.08012241 0.04351524
000070 f0 71 8a 3d df 87 ed 3d 8d 21 99 bc c9 02 0d 3d
       0.06760013 0.11598181 -0.018692756 0.034426484
000080 6d 47 9e 3c e8 97 b2 3c b3 d9 06 bd ba 2f 0a 3c
       0.019321168 0.02180095 -0.032922458 0.00843423
000090 59 79 ad bc 7a 50 b4 3d f4 68 97 bd b5 29 c9 3d
       -0.021176027 0.08804412 -0.07393065 0.09822408
0000a0 23 45 87 3c 93 aa c5 3c 09 ed 5a 3d 75 77 8b 3d
       0.01651246 0.024129188 0.05344871 0.06809894
0000b0 ce d0 67 bd 15 8d c5 3d c6 a7 d4 bd 52 5e 93 bd
       -0.056595616 0.0964605 -0.10383563 -0.071957245
0000c0 ab 20 9b bd bc 0c bf bd 82 15 25 3d f1 4d bc bc
       -0.0757459 -0.09328601 0.040303715 -0.022986384
0000d0 26 90 5b 3d 78 13 84 bc 50 be f6 bd e3 7f 99 3d
       0.053604268 -0.016122565 -0.12048018 0.074950956
0000e0 df 2e be 3d 30 06 59 3d 14 9a 63 3d b2 fb ce bd
       0.09286284 0.052984416 0.055566862 -0.10106601
0000f0 38 5d 8b bd 01 08 bf 3d 7c c6 5d bd d2 5d 23 bb
       -0.068048894 0.093276985 -0.054144368 -0.0024927747

mlp.4.weight f4 [1, 64]
000000 d8 1d e2 bd 7c 6c 61 bd 5f a9 6d bd 7e 65 03 3e
       -0.110408485 -0.0550351 -0.058022853 0.12831685
000010 ec 0b b7 3d a1 22 ea 3d 23 8d e6 bd 62 d3 ac 3d
       0.08937821 0.11432386 -0.112573884 0.084387556
000020 56 e6 4d 3d 16 90 55 3d 7c 43 3b bd 80 92 e7 3a
       0.050268494 0.052139364 -0.045718655 0.0017667562
000030 12 de 9a bd a5 f0 02 3d 28 72 be bc 3c 0f 8b 3d
       -0.07561888 0.031967778 -0.023247793 0.06790015
000040 b0 f6 1b bd a5 d4 0e bd 64 8b 54 bc 33 ae d2 bd
       -0.038077056 -0.034870762 -0.012972686 -0.10287132
000050 d0 c2 a3 bc f8 3e 68 bd ec bb 53 bd c1 28 e5 bc
       -0.019990355 -0.056700677 -0.05169289 -0.027973535
000060 fb 0e ca bd 86 44 97 3d 00 9d c3 bd 30 4f 55 3d
       -0.098661385 0.07386117 -0.0955143 0.052077472
000070 2f e4 00 3e 44 d8 e4 3c 2e 22 a0 3d 1e 79 b5 bd
       0.12587045 0.027935155 0.07819019 -0.08860992
000080 8f ed 32 bd dc 91 c1 3d 8a df 60 3d c7 e1 f1 bd
       -0.043683585 0.094516486 0.054900683 -0.11810642
000090 0c 0a 7c bd ca 15 fe 3d 7c 13 3b bd 24 d9 c4 bb
       -0.06153302 0.124065 -0.04567288 -0.0060073305
0000a0 f2 f4 26 3d 0f bf c1 3d 2e f1 bc bd 92 1b e6 bd
       0.04076094 0.0946027 -0.09225689 -0.11235727
0000b0 86 2a 28 3d 88 44 7c 3d b4 00 a2 3d 48 a1 7b 3d
       0.04105618 0.061588794 0.0791029 0.061433107
0000c0 3e 4e d3 3d 92 78 88 3d 7d d8 ed 3c 54 99 07 3e
       0.10317658 0.06663622 0.029033894 0.13242084
0000d0 1f 3a 65 3d 08 b3 df bd 9a cb a8 bd 2a 59 96 3d
       0.05596363 -0.109228194 -0.08241959 0.073412254
0000e0 5b 78 15 3d 64 e4 48 bd ba 00 84 bd 08 3c 88 bd
       0.036491733 -0.049045935 -0.06445451 -0.06652075
0000f0 c8 cc bc bc a2 43 c0 3d 90 bf 03 3c b8 ca ea 3d
       -0.023046866 0.093879 0.0080412775 0.11464447
