models/edge_time_sage_v1.pt (torch, 106611 bytes, 11 tensors)

node_encoder.weight f4 [64, 1]
0.11137392 0.7458937 0.98557687 0.5571786 1.0009203 -0.6467279 -0.6847345 0.36217088
0.5465728 -0.96699965 -0.9152937 -0.2441296 -0.31407046 0.67478657 0.347512 0.26119295
-0.6176276 -0.052531444 0.032607835 0.7718211 -0.12035824 0.9672645 -0.085043065 0.02661861
0.18487844 0.7919612 0.3078492 -0.52749777 0.9052363 -0.87861747 0.14008826 0.7722322
-0.2080245 0.9062058 0.61873174 0.4124525 -0.41716295 0.7127671 0.10357252 0.95852846
-0.7350623 -0.3718305 0.7798218 0.023423342 0.7026525 -0.5169647 -0.57859 0.46673998
0.84881514 0.9244806 -0.13654725 0.35810113 0.267477 0.5615442 -0.52797323 -0.6028425
0.1719963 0.06203366 -0.36638942 0.58415866 -0.38994348 0.22161382 0.47080764 0.08174509
00000000: 0318 e43d e4f2 3e3f c44e 7c3f 42a3 0e3f
00000010: 281e 803f f68f 25bf c34a 2fbf 766e b93e
00000020: 32ec 0b3f 4a8d 77bf b050 6abf 1cfd 79be
00000030: d8cd a0be d0be 2c3f 18ed b13e 15bb 853e
00000040: d81c 1ebf 362b 57bd cb8f 053d 1196 453f
00000050: 627e f6bd a59e 773f 0f2b aebd 450f da3c
00000060: c650 3d3e f8bd 4a3f 699e 9d3e 180a 07bf
00000070: 91bd 673f 13ed 60bf 4c73 0f3e 02b1 453f
00000080: 6004 55be 1afd 673f 3465 1e3f f92c d33e
00000090: 6296 d5be e877 363f d41d d43d 1f62 753f
000000a0: 0b2d 3cbf 9160 bebe 67a2 473f 4fe2 bf3c
000000b0: 09e1 333f cc57 04bf 791e 14bf 8bf8 ee3e
000000c0: f34b 593f c3aa 6c3f 0bd3 0bbe 0859 b73e
000000d0: bff2 883e 5cc1 0f3f 4129 07bf e353 1abf
000000e0: cc1f 303e 0217 7e3d 6597 bbbe 6c8b 153f
000000f0: aca6 c7be bcee 623e b30d f13e f869 a73d

node_encoder.bias f4 [64]
0.4399849 -0.1882979 0.56955004 0.89124435 0.7043058 -0.046938945 -0.54245985 -0.8338717
0.94136053 0.34552738 -0.5902351 0.012046805 0.9251498 -0.20259564 0.8876477 0.34939978
0.21904168 -0.331797 -0.39780715 -0.0027346665 -0.87304753 -0.5925724 -0.08436185 -0.5509769
-0.19530746 -0.97190577 0.9533134 0.07686862 0.07497606 0.8572794 -0.78702056 0.77164394
-0.2980842 -0.04058552 -0.0025524357 0.631719 0.5497097 0.1462164 0.8091648 0.31440556
0.31746233 0.22313115 0.16927537 -0.18888956 0.53369695 0.23892564 0.8840714 -0.7812547
-0.67947257 0.4110491 -0.86846274 -0.87529665 0.9933107 -0.09006191 0.6720034 -0.4096974
-0.72066313 0.8516712 -0.223593 -0.9403299 -0.8143786 -0.02039635 -0.44796997 0.5709418
00000000: b345 e13e 2ad1 40be 08ce 113f 9728 643f
00000010: 634d 343f 0d43 40bd a6de 0abf 9e78 55bf
00000020: 01fd 703f f7e8 b03e a619 17bf f65f 453c
00000030: 9ed6 6c3f 3b75 4fbe e13c 633f 87e4 b23e
00000040: 764c 603e 4ce1 a9be 61ad cbbe 1738 33bb
00000050: 0b80 5fbf d3b2 17bf e8c5 acbd d20c 0dbf
00000060: aefe 47be d1ce 78bf 590c 743f 4c6d 9d3d
00000070: 0c8d 993d aa76 5b3f 2e7a 49bf 758a 453f
00000080: 7e9e 98be 013d 26bd c446 27bb 56b8 213f
00000090: c6b9 0c3f c1b9 153e 6d25 4f3f c4f9 a03e
000000a0: 6c8a a23e 7e7c 643e 8656 2d3e 446c 41be
000000b0: 5da0 083f eca8 743e 8152 623f 4f00 48bf
000000c0: eaf1 2dbf 0775 d23e 9353 5ebf 7113 60bf
000000d0: 9c49 7e3f 6172 b8bd 6a08 2c3f dcc3 d1be
000000e0: 617d 38bf 2007 5a3f 90f5 64be 76b9 70bf
000000f0: 1e7b 50bf 3f16 a7bc 525c e5be 3e29 123f

conv1.lin_l.weight f4 [64, 64]
-0.07845698 0.11139758 -0.10487269 0.10335579 -0.0968898 0.10301864 0.10196528 -0.047808267
0.076382056 -0.050330967 0.027003556 -0.040710185 -0.029866356 -0.06813684 -0.016330572 0.11243503
-0.07491491 0.114104934 0.13320844 -0.06801746 -0.036148816 0.041626256 0.081679754 -0.045292594
0.09426007 0.067034155 -0.04029894 0.104372494 -0.08007874 0.072980866 -0.11247536 -0.09705946
0.018022746 -0.09892921 0.043986235 0.024700101 0.074029624 0.02156877 0.037520163 -0.028101563
-0.10073279 -0.07442629 0.054457586 -0.10204447 -0.1211894 0.09970678 -0.014966328 0.07936983
-0.029875075 0.101968944 0.11390463 -0.073499285 -0.09836415 0.08705139 -0.106864214 0.1277993
0.033611387 0.0664711 0.12005801 -0.022636158 0.0623056 0.09125676 -0.067323186 0.08869977
-0.018349636 0.06690191 -0.049572602 0.06357805 -0.11916868 -0.04467188 -0.075167425 -0.106450625
-0.1186927 0.09518397 -0.022136183 0.1145593 0.042983033 -0.044566058 0.06183167 -0.113906376
0.08766091 0.111161284 -0.11168128 0.043613564 0.047486596 0.016406272 0.029090572 -0.09995351
-0.10113377 0.09991737 0.020841483 0.024259938 0.021602543 0.007270789 -0.02149678 0.11155503
0.06367529 -0.0654094 0.07086349 0.01495278 -0.07076522 0.059517834 -0.1083326 0.019992815
-0.05215615 0.119122334 0.09389014 0.112066455 -0.035137493 0.07906656 0.10100119 0.061026182
0.08184607 0.10952739 0.010658827 -0.07776474 -0.12752765 -0.061923206 0.00066561816 -0.0033558246
-0.06529213 0.05258491 0.09551523 0.0038236568 -0.098008215 -0.009167107 -0.015421251 -0.121125475
0.03980112 -0.08890313 0.06594738 -0.015592381 -0.071428806 -0.10116714 -0.082112685 0.096400544
-0.07458466 0.10789484 -0.028659672 -0.118686154 0.064351216 -0.057571873 -0.07452594 -0.030245021
-0.12071715 -0.105765134 0.11997785 0.109756485 0.108309954 0.016069278 -0.084492624 0.06944992
0.091494426 -0.017043874 0.035100296 0.10448165 -0.07129876 0.060740754 -0.06975417 -0.043303028
0.059958458 0.05453387 0.014527038 -0.07995345 -0.04875672 -0.0300982 -0.019105926 -0.041784972
0.1193686 -0.010398343 0.0739803 -0.12460366 -0.111024365 0.033800855 -0.052660197 -0.08440648
-0.068026945 -0.069395915 0.053846702 -0.0002657175 0.04890345 -0.014668882 -0.037219286 -0.101978526
-0.053775057 0.028663978 0.10746604 0.09287356 0.0083890855 0.011933908 0.015359104 -0.07700461
-0.0028373592 -0.015476274 0.037341744 0.045792487 0.012159016 0.08560274 -0.06915908 0.020897435
0.014320558 0.08450147 0.09867995 0.039500184 -0.020915631 0.09898092 -0.054603167 -0.08105805
-0.08885735 -0.11617016 -0.035526585 -0.03735233 -0.08791368 0.026957309 -0.06595909 -0.12226648
-0.080732204 0.0857508 0.01652447 -0.022648083 0.09042421 -0.06976983 -0.111890994 0.026247572
0.053772278 0.035190795 0.07159162 -0.09614807 0.040586226 0.06447537 -0.08848793 -0.1019323
0.028850466 0.112946756 -0.04977524 0.072758555 -0.03494998 0.0672809 -0.10173743 0.09487999
0.009255653 0.09745752 0.08472049 -0.08800679 0.075426586 0.11396458 -0.07481591 -0.0073252637
0.00055616064 -0.05250814 -0.11590825 0.11280092 -0.036422256 0.035520203 -0.081166096 -0.036745828
00000000: 0eae a0bd 6a24 e43d 7ec7 d6bd 33ac d33d
00000010: 296e c6bd 70fb d23d 2cd3 d03d 9ad2 43bd
00000020: 326e 9c3d d827 4ebd 9036 dd3c b9bf 26bd
00000030: 4aaa f4bc 548b 8bbd b1c7 85bc 5644 e63d
00000040: fd6c 99bd d9af e93d cb67 083e bd4c 8bbd
00000050: c810 14bd 4b80 2a3d b747 a73d ba84 39bd
00000060: 6c0b c13d 3449 893d 8010 25bd 3fc1 d53d
00000070: 5300 a4bd fe76 953d 7b59 e6bd 1cc7 c6bd
00000080: 70a4 933c 669b cabd e92a 343d de57 ca3c
00000090: d89c 973d fdb0 b03c beae 193d 4035 e6bc
000000a0: fe4c cebd d06c 98bd eb0e 5f3d b1fc d0bd
000000b0: 2632 f8bd 1133 cc3d 5435 75bc a68c a23d
000000c0: 93bc f4bc 18d5 d03d d546 e93d cb86 96bd
000000d0: 2573 c9bd 0048 b23d a0db dabd d2dd 023e
000000e0: 18ac 093d 0022 883d f9e0 f53d 776f b9bc
000000f0: 2834 7f3d d3e4 ba3d bde0 89bd 3aa8 b53d
00000100: fa51 96bc de03 893d a40c 4bbd 3535 823d
00000110: b50e f4bd dcf9 36bd 61f1 99bd c902 dabd
00000120: 2915 f3bd d0ef c23d f156 b5bc 119e ea3d
00000130: fa0e 303d e68a 36bd 3543 7d3d bf47 e9bd
00000140: 9087 b33d 87a8 e33d 28b9 e4bd 23a4 323d
00000150: 4e81 423d 7266 863c 5a4f ee3c 6db4 ccbd
00000160: 391f cfbd 7aa1 cc3d c2bb aa3c c7bc c63c
00000170: d1f7 b03c cc3f ee3b 041a b0bc f776 e43d
00000180: 3168 823d 5df5 85bd e120 913d 81fc 743c
00000190: 5bed 90bd f9c8 733d 7bdd ddbd f9c7 a33c
000001a0: b0a1 55bd 69f6 f33d 7949 c03d 1983 e53d
000001b0: 55ec 0fbd a6ed a13d b6d9 ce3d 97f6 793d
000001c0: ea9e a73d e54f e03d 5ca2 2e3c 1f43 9fbd
000001d0: 9c96 02be 30a3 7dbd e17c 2e3a 65ed 5bbb
000001e0: e1b7 85bd 4663 573d 7d9d c33d 5196 7a3b
000001f0: 88b8 c8bd a231 16bc 6aa9 7cbc a210 f8bd
00000200: 8006 233d d812 b6bd 6c0f 873d 3077 7fbc
00000210: 4449 92bd b830 cfbd b22a a8bd a66d c53d
00000220: d8bf 98bd f8f7 dc3d b0c7 eabc ba11 f3bd
00000230: 92ca 833d 7cd0 6bbd 0ea1 98bd 68c4 f7bc
00000240: 8e3a f7bd 649b d8bd f2b6 f53d 02c8 e03d
00000250: 9cd1 dd3d b8a3 833c 780a adbd c23b 8e3d
00000260: 6e61 bb3d 989f 8bbc 54c5 0f3d 7afa d53d
00000270: 1605 92bd 4ccb 783d 46db 8ebd 845e 31bd
00000280: 0097 753d e85e 5f3d d002 6e3c a2be a3bd
00000290: 20b5 47bd 8090 f6bc 0884 9cbc b826 2bbd
000002a0: 8677 f43d d05d 2abc fc82 973d 3430 ffbd
000002b0: be60 e3bd c472 0a3d 38b2 57bd 4edd acbd
000002c0: b651 8bbd 721f 8ebd 5c8e 5c3d 0050 8bb9
000002d0: fc4e 483d c055 70bc 4073 18bd 1eda d0bd
000002e0: 3c43 5cbd b8d0 ea3c 2817 dc3d 7e34 be3d
000002f0: 6072 093c 7086 433c c0a4 7b3c 98b4 9dbd
00000300: fdf2 39bb 3390 7dbc a8f3 183d e790 3b3d
00000310: 9c36 473c 7d50 af3d 47a3 8dbd 1931 ab3c
00000320: c6a0 6a3c 1b0f ad3d b718 ca3d f2ca 213d
00000330: 4257 abbc 82b6 ca3d 92a7 5fbd c301 a6bd
00000340: d8fa b5bd 9fea edbd 5384 11bd c2fe 18bd
00000350: 160c b4bd 93d5 dc3c 8f15 87bd d966 fabd
00000360: ed56 a5bd 1e9e af3d 535e 873c 7988 b9bc
00000370: 5430 b93d 7ce3 8ebd 1b27 e5bd 2605 d73c
00000380: 5240 5c3d 3924 103d a19e 923d 48e9 c4bd
00000390: be3d 263d aa0b 843d 2939 b5bd e2c1 d0bd
000003a0: d057 ec3c a150 e73d 1fe1 4bbd 7002 953d
000003b0: b627 0fbd 92ca 893d b75b d0bd 7150 c23d
000003c0: 06a5 173c cf97 c73d f081 ad3d e73c b4bd
000003d0: 4179 9a3d 4366 e93d 1539 99bd c408 f0bb
000003e0: 4fcb 113a c712 57bd 4e61 edbd 2b04 e73d
000003f0: 812f 15bd a27d 113d 693a a6bd cb82 16bd

conv1.lin_l.bias f4 [64]
-0.017024148 0.110932894 0.045861393 -0.07548463 0.0033964526 -0.008162678 -0.07927692 0.00099051
-0.034758344 -0.012499889 -0.11917504 0.059592325 -0.118624814 -0.06357886 -0.0323669 -0.12373555
0.07780498 0.12791684 -0.09314497 0.10919246 0.04183565 0.10329789 0.060878396 -0.11112379
-0.09666564 0.0358868 -0.097591296 -0.02825958 -0.059032217 0.11625758 -0.06640516 0.07198083
0.063452736 0.037643854 -0.038818065 -0.012057142 0.012843711 0.12211291 -0.016060747 0.11565772
0.09085477 0.12131588 0.010226603 -0.0065690586 -0.102999195 0.088418685 -0.048928943 -0.074338526
0.08198863 -0.08682589 0.030059427 -0.00989553 -0.021091267 -0.068032354 -0.029136313 0.051467493
0.07723895 0.045035917 -0.081243485 0.056961387 -0.017276073 -0.067670695 -0.00823474 -0.021827836
00000000: 3a76 8bbc c930 e33d 28d9 3b3d b097 9abd
00000010: 0597 5e3b c1bc 05bc f05b a2bd 00d4 813a
00000020: c45e 0ebd 56cc 4cbc 0b12 f4bd 1517 743d
00000030: 91f1 f2bd a235 82bd 2893 04bd 1069 fdbd
00000040: 3858 9f3d a2fc 023e cac2 bebd 4ca0 df3d
00000050: dc5b 2b3d d88d d33d a05b 793d df94 e3bd
00000060: a3f8 c5bd 0afe 123d f2dd c7bd a280 e7bc
00000070: c4cb 71bd 7418 ee3d 6eff 87bd af6a 933d
00000080: 82f3 813d 7130 1a3d b1ff 1ebd 528b 45bc
00000090: 6e6e 523c 5516 fa3d d491 83bc f4dd ec3d
000000a0: 1112 ba3d 7674 f83d 7b8d 273c 4241 d7bb
000000b0: 3ef1 d2bd db14 b53d b769 48bd cc3e 98bd
000000c0: a8e9 a73d c6d1 b1bd 303f f63c dc20 22bc
000000d0: 98c7 acbc 8c54 8bbd 47af eebc 94cf 523d
000000e0: 742f 9e3d 9577 383d fc62 a6bd 5850 693d
000000f0: 8d86 8dbc ef96 8abd 01eb 06bc 4ad0 b2bc

conv1.lin_r.weight f4 [64, 64]
0.018673643 -0.09397259 -0.08791804 -0.097706385 0.0696194 0.07549549 -0.10834476 0.06404385
0.08442792 -0.097265325 0.12342606 -0.0562737 -0.08749769 -0.037486408 0.041639928 0.08891119
-0.044061206 -0.09174495 -0.08670924 -0.045432486 -0.078472115 0.030184653 0.08461957 0.011238352
-0.035983767 0.07852453 -0.058306966 0.10286128 -0.075027496 -0.016807182 0.025957687 -0.007789035
-0.03505285 0.015610512 0.08300902 0.048191484 0.07713682 -0.089989185 -0.10789796 0.0976023
-0.09151106 0.0890907 0.016542297 -0.072978854 0.08487863 -0.049338862 -0.09707904 -0.066756085
-0.10079595 0.039065808 -0.014414514 -0.0595532 -0.113431446 0.033319995 0.0748216 0.1363812
0.10456977 -0.11178059 -0.07832503 0.07259059 -0.0940441 -0.12490016 -0.051966906 -0.03901929
0.002761208 0.02340967 0.07351493 0.060610984 -0.07002579 0.08772327 -0.061405882 0.10765789
0.1089942 -0.029183405 0.10791575 0.06151068 0.05121454 -0.0162659 -0.029164053 -0.11082948
-0.10252656 0.09948764 0.07784809 -0.04163368 0.073674306 -0.041053697 0.070673585 0.02611275
-0.01693436 0.04443976 0.0522867 -0.0053296457 -0.084354594 0.108431466 0.07775531 0.0129696475
-0.07982331 0.03976864 -0.028975897 -0.033100773 0.039413843 0.05470685 -0.0016641787 -0.10390637
0.075714365 -0.041171882 0.030018177 -0.08674827 -0.12152864 -0.085616864 -0.1170883 0.08017527
-0.053009994 -0.089875 0.04721932 -0.043267846 -0.009210521 -0.015938684 -0.040824108 0.11430347
-0.044210777 0.10288386 0.07870262 0.028542459 -0.06981759 0.005411486 -0.123434655 -0.087209485
-0.09073147 0.027458802 0.083735496 -0.088100195 -0.101575315 0.08664295 -0.08206974 -0.033606976
0.008685693 -0.10034059 0.043182775 -0.10107857 0.015177757 -0.07162577 -0.05398251 -0.097595096
-0.06848325 -0.018816993 -0.08339059 0.06967619 0.015991881 -0.029629722 0.080790564 0.061106026
0.05867666 0.099360555 -0.08841899 0.0044308454 0.022999078 -0.025105193 -0.014761701 -0.09366211
0.09850964 -0.047490448 0.10652667 -0.113086164 0.06267835 0.015127584 -0.07548678 -0.0968034
0.028983131 0.015291348 0.05135891 -0.024601087 -0.07501167 -0.112247795 -0.03746827 0.08489299
-0.022776082 0.12061176 -0.09136322 0.108677626 0.010009304 -0.07076123 -0.07388665 0.10452214
-0.006466657 0.1038959 -0.0065650493 0.10635504 -0.10726501 -0.053201422 0.07495992 -0.07393928
-0.05120157 -0.096418284 0.109698385 0.05228819 -0.07165119 0.04847365 -0.09167129 0.015207944
-0.12095034 0.11685798 -0.065066814 0.10508177 -0.0816258 0.10448258 -0.08730712 -0.03195512
-0.088549785 0.098971345 0.04145007 0.1007086 -0.077120125 0.031704944 0.08310423 0.12043638
0.068245225 -0.086875424 0.05971034 0.11215695 -0.10020498 0.053217884 -0.020181665 0.01138714
0.015200058 -0.0423195 -0.025521837 0.055677414 0.017698202 0.09679758 -0.0773975 0.09866
0.0363121 0.12276513 0.06520288 0.057232793 0.068122685 -0.062866405 0.12062568 -0.12282362
-0.08717843 0.023056382 0.118603066 -0.11132857 0.088365026 0.04094029 0.0017087864 0.04130876
-0.055065606 -0.016821153 0.071636 -0.033312023 -0.03545298 -0.020014845 0.033725068 -0.04405783
00000000: 78f9 983c b474 c0bd 600e b4bd 491a c8bd
00000010: 9e94 8e3d 619d 9a3d dce3 ddbd 6c29 833d
00000020: 8ce8 ac3d 0b33 c7bd cdc6 fc3d 407f 66bd
00000030: fd31 b3bd 598b 19bd a18e 2a3d 1217 b63d
00000040: 8679 34bd c7e4 bbbd 9d94 b1bd 6a17 3abd
00000050: fdb5 a0bd ce45 f73c 064d ad3d 1121 383c
00000060: b763 13bd 78d1 a03d 49d3 6ebd efa8 d23d
00000070: 04a8 99bd 37af 89bc 37a5 d43c 293b ffbb
00000080: 9493 0fbd 3cc3 7f3c a200 aa3d 6f64 453d
00000090: e9f9 9d3d 404c b8bd 9bf9 dcbd b7e3 c73d
000000a0: 276a bbbd 2f75 b63d b683 873c f075 95bd
000000b0: d9d4 ad3d 8c17 4abd 60d1 c6bd 6ab7 88bd
000000c0: 1b6e cebd 7803 203d db2a 6cbc 0eee 73bd
000000d0: bf4e e8bd 8c7a 083d 113c 993d 83a7 0b3e
000000e0: ad28 d63d 39ed e4bd e068 a0bd 60aa 943d
000000f0: 319a c0bd a8cb ffbd 40db 54bd b1d2 1fbd
00000100: 62f5 343b a3c5 bf3c ff8e 963d 3943 783d
00000110: ae69 8fbd 42a8 b33d bc84 7bbd bd7b dc3d
00000120: 5a38 df3d 0912 efbc ef02 dd3d 9ff2 7b3d
00000130: 56c6 513d 1140 85bc 74e9 eebc 91fa e2bd
00000140: 72f9 d1bd 2dc0 cb3d d26e 9f3d 1488 2abd
00000150: 8ee2 963d ec27 28bd 50bd 903d 68ea d53c
00000160: edb9 8abc 7706 363d 942a 563d 4fa4 aebb
00000170: 1ac2 acbd 5111 de3d 2d3e 9f3d a57e 543c
00000180: 677a a3bd 71e4 223d dc5e edbc ad94 07bd
00000190: 6970 213d 4a14 603d 9220 daba ddcc d4bd
000001a0: 2210 9b3d d9a3 28bd aee8 f53c 14a9 b1bd
000001b0: 02e4 f8bd e557 afbd fecb efbd ef32 a43d
000001c0: 0221 59bd 6210 b8bd 0c69 413d a039 31bd
000001d0: bae7 16bc d891 82bc 2e37 27bd f017 ea3d
000001e0: 5c16 35bd c6b4 d23d d72e a13d e0d1 e93c
000001f0: 86fc 8ebd d652 b13b 4fcb fcbd e39a b2bd
00000200: 6cd1 b9bd 48f1 e03c 847d ab3d e06d b4bd
00000210: b806 d0bd dc71 b13d 2e14 a8bd 78a7 09bd
00000220: 704e 0e3c 5e7f cdbd 6ce0 303d 4802 cfbd
00000230: 20ac 783c 88b0 92bd c41c 5dbd f0df c7bd
00000240: f240 8cbd 1826 9abc b0c8 aabd 64b2 8e3d
00000250: 6801 833c 08ba f2bc 8675 a53d 504a 7a3d
00000260: f056 703d 8c7d cb3d 0415 b5bd a030 913b
00000270: 9068 bc3c 68a9 cdbc 10db 71bc ecd1 bfbd
00000280: 6cbf c93d 5885 42bd a82a da3d b899 e7bd
00000290: 825d 803d b0d9 773c d098 9abd dc40 c6bd
000002a0: 086e ed3c 9088 7a3c b85d 523d 3888 c9bc
000002b0: b89f 99bd 2ce2 e5bd 5478 19bd 60dc ad3d
000002c0: e894 babc 4c03 f73d a41c bbbd 6092 de3d
000002d0: 10fe 233c 44eb 90bd e251 97bd b40f d63d
000002e0: 40e6 d3bb 60c7 d43d a01f d7bb acd0 d93d
000002f0: c2ad dbbd bce9 59bd 9684 993d 7a6d 97bd
00000300: bdb8 51bd f376 c5bd 8ca9 e03d 242c 563d
00000310: dcbd 92bd 4e8c 463d 28be bbbd be2a 793c
00000320: d0b4 f7bd 3d53 ef3d c041 85bd 1c35 d73d
00000330: 6d2b a7bd f7fa d53d 13ce b2bd 5fe3 02bd
00000340: 9759 b5bd 7db1 ca3d 8cc7 293d 4f40 ce3d
00000350: 28f1 9dbd 0bdd 013d 8d32 aa3d 59a7 f63d
00000360: 27c4 8b3d beeb b1bd d492 743d 8bb2 e53d
00000370: 4538 cdbd fffa 593d 0554 a5bc 2091 3a3c
00000380: aa09 793c 3657 2dbd 2c13 d1bc 000e 643d
00000390: d2fb 903c cf3d c63d 9582 9ebd 410e ca3d
000003a0: ffbb 143d 496c fb3d 1689 853d ef6c 6a3d
000003b0: e883 8b3d 1ac0 80bd 990a f73d f38a fbbd
000003c0: 9b8a b2bd bde0 bc3c 2ae6 f23d 3c00 e4bd
000003d0: b9f8 b43d 01b1 273d 5bf9 df3a 6033 293d
000003e0: 798c 61bd 84cc 89bc e5b5 923d 3072 08bd
000003f0: 2537 11bd 2cf6 a3bc 4c23 0a3d fc75 34bd

conv2.lin_l.weight f4 [64, 64]
-0.056300707 0.079659924 0.035438657 0.0141623635 0.08639674 -0.11353281 -0.07368997 0.059428766
0.049575 -0.07731708 0.072720185 0.13018158 -0.08311474 -0.06778352 0.036407683 0.019494547
-0.106952295 0.07366277 0.03413683 0.032515198 0.108691774 -0.026223049 -0.045540556 0.11165184
0.03122232 0.07665906 0.037736475 -0.06606326 0.07460239 0.02458128 0.015965894 -0.0133983595
0.12195957 -0.04656729 0.070231736 -0.081753984 0.006561056 -0.08891507 -0.11285105 0.017861351
-0.07602181 -0.11998412 0.088503286 0.04251638 -0.06531134 -0.014733471 0.06772207 0.014393657
-0.08141778 -0.0076662004 0.05009219 0.054712806 0.02298233 -0.026431799 0.06270415 0.0869129
0.016893815 -0.10330358 -0.024085626 0.03931546 -0.004064249 -0.12336085 -0.09539047 -0.07947098
-0.0068634143 -0.026034007 0.12336396 -0.010301571 0.021413464 0.11903041 0.08710743 -0.037782595
0.11380431 0.012568729 0.087488376 -0.08166434 -0.050574064 -0.08539985 -0.04025299 0.051389873
0.10202296 -0.05872007 -0.07459134 0.05531065 -0.11088348 -0.05352868 0.07781557 0.05039121
0.017257651 0.13168827 0.058542743 -0.08834257 0.12912053 0.051068515 -0.022867277 0.042085126
-0.019082472 -0.09833017 0.05513598 0.056252126 0.040802874 -0.06807693 -0.10593892 0.010529026
0.08445456 0.025540099 0.08355698 0.09651755 -0.086573645 -0.08229949 0.098467834 -0.04622595
0.07045409 0.09840821 -0.025347292 -0.07416736 0.10472515 -0.11256966 0.09197719 0.037780732
0.07898996 0.00095145404 -0.08659637 -0.0041455426 0.0058118147 -0.07915422 -0.11783877 -0.015554152
0.0671978 -0.027190626 -0.05020672 -0.0939596 -0.10009837 0.031721532 0.032734856 -0.10952167
0.0054761022 0.0933878 -0.09982385 0.106238335 0.038055003 0.072539985 -0.090519845 0.02723986
0.047556013 0.053949744 -0.03251058 0.04325883 0.07134275 0.052695006 0.027308628 0.02643779
-0.07836649 -0.07189493 0.02569443 0.048972964 -0.0091175735 -0.029591128 0.116614476 -0.073902115
0.07821502 0.12137517 -0.08515303 -0.084939614 0.09082019 0.026475161 -0.06573962 0.073384255
0.03215733 0.07308565 0.02533929 0.10524343 0.11200558 -0.0723916 -0.052341893 0.052283168
-0.11656733 0.00059761107 0.11355534 -0.05113615 0.11275479 0.022717714 0.043637633 -0.06398629
-0.035710543 -0.108625665 -0.012206897 -0.0051730126 0.08242576 -0.011563033 0.1147418 0.069264844
-0.07734027 -0.04971752 0.06327009 -0.025214676 -0.016819267 -0.10429076 0.1343527 0.0026179552
0.041395992 -0.0028651396 -0.078161255 -0.020984357 -0.06783805 -0.072891355 -0.054736793 0.035051245
-0.11012856 -0.039595865 0.0038598762 -0.011202693 -0.04727266 -0.03286822 -0.06956762 0.093120135
0.11385022 -0.022980917 0.07808146 0.039640564 0.12835598 0.03275319 -0.020204231 -0.09081683
-0.0524538 -0.06878988 0.073421784 0.029124439 -0.047036834 0.13137713 -0.040127 0.027440984
0.050475337 -0.086485445 -0.10828487 -0.06413341 -0.09136504 -0.020348927 0.11817506 0.08668585
-0.09726516 -0.078755304 -0.022123545 0.10650783 0.034087166 -0.07133958 0.00068695314 -0.10465267
-0.010320822 0.11971422 -0.032300636 0.038459435 -0.07798128 -0.015839385 0.11920873 0.062689275
00000000: 929b 66bd be24 a33d 2028 113d 4209 683c
00000010: c6f0 b03d e483 e8bd c4ea 96bd 946b 733d
00000020: 280f 4b3d 6b58 9ebd 52ee 943d 524e 053e
00000030: 1038 aabd 16d2 8abd 3920 153d 07b3 9f3c
00000040: ce09 dbbd 82dc 963d 10d3 0b3d a82e 053d
00000050: cb99 de3d b8d1 d6bc bc88 3abd b8a9 e43d
00000060: f3c5 ff3c 6dff 9c3d 9091 1a3d 2d4c 87bd
00000070: 23c9 983d ae5e c93c e8ca 823c cb84 5bbc
00000080: f0c5 f93d 58bd 3ebd a8d5 8f3d a26e a7bd
00000090: 20fe d63b 1b19 b6bd 741e e7bd f851 923c
000000a0: 53b1 9bbd 3cba f5bd 3641 b53d a825 2e3d
000000b0: f4c1 85bd a864 71bc deb1 8a3d 60d3 6b3c
000000c0: 5dbe a6bd c034 fbbb 782d 4d3d 891a 603d
000000d0: 7045 bc3c 8087 d8bc 096b 803d 64ff b13d
000000e0: e664 8a3c d490 d3bd 384f c5bc 3f09 213d
000000f0: 642d 85bb 9da4 fcbd 145c c3bd aec1 a2bd
00000100: 7ee6 e0bb 4545 d5bc 3ea6 fc3d ecc7 28bc
00000110: 4a6b af3c 37c6 f33d 6165 b23d ecc1 1abd
00000120: 3c12 e93d 12ed 4d3c 1b2d b33d a23f a7bd
00000130: c026 4fbd 1ee6 aebd 52e0 24bd 307e 523d
00000140: 6af1 d03d 7584 70bd 58c3 98bd 6c8d 623d
00000150: e116 e3bd e440 5bbd c55d 9f3d 0367 4e3d
00000160: eb5f 8d3c 4ad9 063e 84ca 6f3d f3ec b4bd
00000170: 2c38 043e 382d 513d 2854 bbbc 7461 2c3d
00000180: d852 9cbc 5461 c9bd 44d6 613d a168 663d
00000190: ea20 273d eb6b 8bbd 81f6 d8bd f081 2c3c
000001a0: 83f6 ac3d 7839 d13c ec1f ab3d feaa c53d
000001b0: 864d b1bd a38c a8bd 81a9 c93d 6c57 3dbd
000001c0: 3c4a 903d 3e8a c93d 20a5 cfbc 0fe5 97bd
000001d0: 247a d63d ec8a e6bd 895e bc3d f8bf 1a3d
000001e0: 7dc5 a13d 006b 793a 7059 b1bd 55d7 87bb
000001f0: 0971 be3b 9c1b a2bd 7455 f1bd d8d6 7ebc
00000200: 009f 893d e0be debc 90a5 4dbd e46d c0bd
00000210: 6000 cdbd 70ee 013d fc14 063d e64c e0bd
00000220: e070 b33b 1a42 bf3d 7270 ccbd 7c93 d93d
00000230: 90df 1b3d d88f 943d 7862 b9bd 2026 df3c
00000240: 18ca 423d 68fa 5c3d d029 05bd 2c30 313d
00000250: 261c 923d b8d6 573d 58b6 df3c 1094 d83c
00000260: 9c7e a0bd a63d 93bd 207d d23c e097 483d
00000270: e061 15bc 1869 f2bc 92d3 ee3d fe59 97bd
00000280: 322f a03d 8c93 f83d b664 aebd d2f4 adbd
00000290: f0ff b93d 70e2 d83c 7ea2 86bd 7c4a 963d
000002a0: 68b7 033d eead 953d 5894 cf3c de89 d73d
000002b0: 2e63 e53d 0c42 94bd 7464 56bd e026 563d
000002c0: daba eebd 00a9 1c3a b48f e83d 2474 51bd
000002d0: fceb e63d 801a ba3c 60bd 323d 3e0b 83bd
000002e0: 3845 12bd 2277 debd 70ff 47bc 6082 a9bb
000002f0: d6ce a83d e072 3dbc c0fd ea3d bada 8d3d
00000300: 9364 9ebd 99a4 4bbd c093 813d 028f cebc
00000310: 8fc8 89bc 6596 d5bd c193 093e 0092 2b3b
00000320: d88e 293d 11c5 3bbb 0213 a0bd 63e7 abbc
00000330: adee 8abd 1048 95bd b033 60bd e591 0f3d
00000340: 158b e1bd 462f 22bd faf5 7c3b 808b 37bc
00000350: faa0 41bd d4a0 06bd 7879 8ebd c5b5 be3d
00000360: 4e2a e93d 7a42 bcbc 2ce9 9f3d 255e 223d
00000370: c06f 033e 3528 063d 5883 a5bc 2dfe b9bd
00000380: ccd9 56bd b5e1 8cbd 295e 963d 6096 ee3c
00000390: b2a9 40bd ba87 063e 365c 24bd eacb e03c
000003a0: 3abf 4e3d 481f b1bd 75c4 ddbd 6158 83bd
000003b0: 981d bbbd cbb2 a6bc c405 f23d 5a88 b13d
000003c0: f532 c7bd 764a a1bd 703c b5bc c720 da3d
000003d0: fc9e 0b3d 7c1a 92bd a514 343a 2454 d6bd
000003e0: aa18 29bc bb2c f53d ac4d 04bd a487 1d3d
000003f0: a6b4 9fbd 99c1 81bc b523 f43d 3c63 803d

conv2.lin_l.bias f4 [64]
-0.08670441 0.084078096 -0.06679669 -0.026528073 0.10246293 0.079536125 -0.11737316 0.10080088
0.12043592 0.05216844 0.012052044 0.014581432 -0.0968994 0.12435336 -0.068040654 -0.08762097
-0.093918845 -0.049547914 -0.032138456 -0.003804035 0.056652956 -0.057912845 -0.011802405 0.018112876
-0.1310767 0.052638553 0.11206793 0.04151114 -0.13364932 0.121582106 -0.10699473 -0.10740894
0.06640747 0.09189496 0.08410612 0.0026757736 0.0522557 -0.06374444 -0.029399982 0.060670264
0.019668244 0.0064159227 0.024859305 0.12806603 -0.112863965 0.076690726 0.035593934 0.06476029
-0.08477205 0.06535928 -0.02496037 -0.10507564 0.07041762 -0.05737623 -0.06345856 -0.048720468
0.03942879 0.04299891 -0.010131004 -0.070572 -0.0693614 -0.018371403 0.04558725 0.09124201
00000000: 1592 b1bd 2331 ac3d b4cc 88bd 6751 d9bc
00000010: 16d8 d13d d6e3 a23d 5761 f0bd b170 ce3d
00000020: 1ca7 f63d 93ae 553d f075 453c f5e6 6e3c
00000030: 3173 c6bd f9ac fe3d e658 8bbd a072 b3bd
00000040: 8658 c0bd c1f2 4abd 9da3 03bd 1e4d 79bb
00000050: ee0c 683d 0536 6dbd e05e 41bc 7461 943c
00000060: f838 06be 869b 573d df83 e53d 9607 2a3d
00000070: 5edb 08be 0a00 f93d 0e20 dbbd 38f9 dbbd
00000080: a400 883d 6d33 bc3d d43f ac3d 085c 2f3b
00000090: 130a 563d 728c 82bd 3bd8 f0bc 6281 783d
000000a0: 4c1f a13c a93c d23b bea5 cb3c be23 033e
000000b0: 3925 e7bd 0710 9d3d f2ca 113d 0ba1 843d
000000c0: f89c adbd 16db 853d b179 ccbc e631 d7bd
000000d0: 1d37 903d 5603 6bbd 90f6 81bd 1d8f 47bd
000000e0: 1580 213d a01f 303d 83fc 25bc 0e88 90bd
000000f0: 5a0d 8ebd a07f 96bc b2b9 3a3d 17dd ba3d

conv2.lin_r.weight f4 [64, 64]
-0.02866132 -0.014006209 0.087093666 -0.055676892 -0.013547689 -0.029203475 -0.112479724 -0.11349256
0.009752974 0.072405964 -0.014494931 0.03741288 -0.010818005 0.08758649 -0.052965373 -0.02172479
-0.043292597 0.004530991 0.06551145 -0.10106656 0.07071974 0.06330411 -0.10215485 0.07277425
-0.08236787 -0.027159218 -0.08378497 -0.037502766 2.9090439e-05 -0.06451865 0.076497465 0.056329288
0.11702198 0.101798266 0.044787217 0.015156833 -0.09895682 -0.07005505 -0.07457161 0.039204754
0.055539068 0.122389704 0.04884278 -0.06794687 -0.019084677 0.0028664172 -0.10359931 -0.033687547
-0.06202485 -0.055977076 0.06063667 0.04817531 0.053862333 0.040554985 0.06780147 0.0667198
-0.08013329 -0.00071709027 0.009001285 -0.015298143 0.108598284 -0.020418648 0.10755132 0.03766643
-0.08702556 -0.039907884 0.017874673 -0.05119992 -0.007794723 0.13048583 -0.03798246 0.07636571
-0.009713218 0.072692 -0.0008043401 -0.11270483 0.09797592 -0.0760905 -0.035260566 -0.022576842
0.065612845 0.023827655 0.039764024 0.08637078 -0.09797365 0.03423722 -0.017946297 -0.001756343
0.10177851 -0.009244857 -0.122046515 -0.052692156 -0.044428587 0.01292438 0.0662629 -0.03753962
-0.043360263 0.09193125 0.1320981 -0.11044562 0.044266038 -0.027211593 0.062004626 -0.07092422
0.13022594 -0.062285587 0.1072018 0.09410102 0.003936991 -0.09169315 0.005207563 -0.049205765
-0.0561408 0.08585414 0.08069293 0.07230593 -0.016089872 -0.03513165 -0.07900017 -0.0076314807
0.017583234 -0.04513442 -0.006048292 -0.0992891 -0.07563214 0.07976989 0.06526016 -0.0045251637
-0.07299827 0.042035475 0.008975446 -0.12096436 0.01687619 0.020015612 0.05430472 0.011356965
0.09179227 0.08214371 -0.021347523 -0.027750298 0.10611972 0.012755141 0.07150555 0.124424875
-0.056416914 0.003159225 0.06235014 -0.11184634 0.027978167 -0.07664819 0.013247475 -0.09590544
-0.10763174 0.05890262 -0.11740705 -0.019571885 0.014796108 -0.09244336 0.073525175 -0.022656992
0.038414344 -0.03723125 -0.06466338 0.10208665 -0.09829001 0.04061915 -0.10859592 -0.06922503
0.050585255 0.021471366 -0.025141507 0.057142362 -0.0029566884 -0.041762337 -0.06914869 0.07708906
-0.01286149 0.009376869 0.047907203 0.081697315 0.014017105 -0.020202294 -0.047311887 0.03947991
-0.02021189 -0.041142747 0.02198641 -0.037001207 -0.09788844 0.10538107 0.046154246 0.07409221
-0.03296175 -0.06724195 -0.07942061 0.06513816 -0.03982634 0.08194306 -0.047501933 0.055632606
0.04168378 -0.02134213 -0.0980997 -0.021715757 -0.04398884 0.052651692 0.038008418 -0.10133973
-0.100298725 0.11572932 0.062608644 -0.02990283 -0.1048918 0.06331827 -0.05899503 0.041762896
0.13506226 0.013535413 -0.105365336 -0.033070188 0.067987725 0.09543836 0.013536468 0.1298904
-0.10991964 -0.054013804 -0.0877735 0.037181783 -0.102763794 0.11241048 0.11127391 0.11365355
0.0008069911 0.034371436 0.00048356448 0.04684714 -0.042208 0.061269972 -0.07108989 0.08910011
-0.09759429 -0.080024675 -0.014370754 -0.07622419 -0.057694897 0.058089584 -0.067060575 0.016392842
-0.08582588 0.010130499 0.025968686 0.028249003 0.13388796 -0.08483361 -0.0056584403 0.09629822
00000000: 25cb eabc 4c7a 65bc 2a5e b23d 740d 64bd
00000010: 20f7 5dbc 203c efbc c55b e6bd ca6e e8bd
00000020: f0ca 1f3c 9449 943d 267c 6dbc 403e 193d
00000030: 003e 31bc 8c60 b33d 38f2 58bd 30f8 b1bc
00000040: 9453 31bd b578 943b de2a 863d fcfb cebd
00000050: 83d5 903d 96a5 813d 9036 d1bd aa0a 953d
00000060: 7cb0 a8bd 027d debc 7497 abbd 809c 19bd
00000070: 3e07 f437 5b22 84bd b4aa 9c3d 8ab9 663d
00000080: 38a9 ef3d 9c7b d03d cd72 373d 5e54 783c
00000090: e0a9 cabd 0679 8fbd 00b9 98bd 2a95 203d
000000a0: ef7c 633d 74a7 fa3d 5e0f 483d bb27 8bbd
000000b0: 7857 9cbc 80da 3b3b e02b d4bd f4fb 09bd
000000c0: c50d 7ebd 3848 65bd 285e 783d 7953 453d
000000d0: c09e 5c3d fc1c 263d 7fdb 8a3d 64a4 883d
000000e0: ec1c a4bd 1dfb 3bba 207a 133c 10a5 7abc
000000f0: c768 de3d 0245 a7bc de43 dc3d 1d48 1a3d
00000100: 753a b2bd 7376 23bd e86d 923c 02b7 51bd
00000110: e06a ffbb 149e 053e 7f93 1bbd a065 9c3d
00000120: 3024 1fbc 8bdf 943d 5ada 52ba cad1 e6bd
00000130: 99a7 c83d 56d5 9bbd 626d 10bd 12f3 b8bc
00000140: 0760 863d 3732 c33c 9adf 223d 2ae3 b03d
00000150: 69a6 c8bd 543c 0c3d 1d04 93bc 1735 e6ba
00000160: 4071 d03d be77 17bc 86f3 f9bd bbd3 57bd
00000170: c0fa 35bd c7c0 533c d8b4 873d 25c3 19bd
00000180: 889a 31bd 7446 bc3d b944 073e 5031 e2bd
00000190: 4e50 353d d9ea debc 90f8 7d3d b840 91bd
000001a0: f359 053e 2c1f 7fbd 9e8c db3d 09b8 c03d
000001b0: e001 813b 9ec9 bbbd 34a4 aa3b fc8b 49bd
000001c0: e5f3 65bd 4cd4 af3d 5642 a53d 2215 943d
000001d0: e8ce 83bc 34e6 0fbd d7ca a1bd 8011 fabb
000001e0: b70a 903c dfde 38bd c030 c6bb 1558 cbbd
000001f0: 06e5 9abd 655e a33d 1ea7 853d d347 94bb
00000200: 1e80 95bd 642d 2c3d c00d 133c 2abc f7bd
00000210: f03f 8a3c c8f7 a33c a06e 5e3d 9012 3a3c
00000220: 96fd bb3d f63a a83d 00e1 aebc 9854 e3bc
00000230: 4c55 d93d f0fa 503c 8071 923d 78d2 fe3d
00000240: 6c15 67bd 000b 4f3b dc62 7f3d b20f e5bd
00000250: 7832 e53c baf9 9cbd f00b 593c 126a c4bd
00000260: 086e dcbd e043 713d 1c73 f0bd 3855 a0bc
00000270: 606b 723c f252 bdbd 5e94 963d 289b b9bc
00000280: 5c58 1d3d cc7f 18bd 3c6e 84bd ce12 d13d
00000290: 464c c9bd 4460 263d 8a67 debd dac5 8dbd
000002a0: 7c32 4f3d b8e4 af3c 90f5 cdbc 1c0e 6a3d
000002b0: 00c5 41bb fc0e 2bbd d49d 8dbd dee0 9d3d
000002c0: 00b9 52bc 70a1 193c 583a 443d ec50 a73d
000002d0: 00a8 653c 487f a5bc 1cca 41bd b0b5 213d
000002e0: 6893 a5bc 4c85 28bd d81c b43c 948e 17bd
000002f0: bc79 c8bd 08d2 d73d 3c0c 3d3d a8bd 973d
00000300: e602 07bd 26b6 89bd 46a7 a2bd 2867 853d
00000310: f220 23bd c3d1 a73d 6391 42bd 04df 633d
00000320: 9cbc 2a3d b1d5 aebc 7fe8 c8bd 3ee5 b1bc
00000330: a42d 34bd 4da9 573d b7ae 1b3d 348b cfbd
00000340: 6b69 cdbd 7e03 ed3d f638 803d c8f6 f4bc
00000350: 83d1 d6bd 02ad 813d c6a4 71bd 920f 2b3d
00000360: c34d 0a3e a3c3 5d3c c8c9 d7bd 9b74 07bd
00000370: 263d 8b3d 3075 c33d 10c8 5d3c fd01 053e
00000380: 8c1d e1bd 943d 5dbd 98c2 b3bd ed4b 183d
00000390: d375 d2bd 7737 e63d 93e3 e33d 31c3 e83d
000003a0: 428c 533a 10c9 0c3d ed86 fd39 c9e2 3f3d
000003b0: 4ce2 2cbd 39f6 7a3d 9497 91bd 1e7a b63d
000003c0: 84df c7bd fae3 a3bd 5073 6bbc 6e1b 9cbd
000003d0: 7c51 6cbd 58ef 6d3d 0e57 89bd 484a 863c
000003e0: 7bc5 afbd 64fa 253c 48bc d43c 746a e73c
000003f0: ed19 093e 3ebd adbd 706a b9bb 0038 c53d

edge_mlp.0.weight f4 [64, 134]
0.06920821 -0.036927775 -0.06320866 0.08457362 -0.046138376 0.031516 -0.076658316 0.057712168
0.09579504 0.07288168 -0.07425094 -0.062137563 -0.07012381 -0.065009005 0.020392936 0.03298344
0.050443176 -0.015947428 -0.0381624 0.096918315 -0.055902477 0.06384822 0.084117875 0.09098657
-0.061368924 0.032272175 -0.041962672 -0.053601675 0.04712224 -0.014984282 -0.040670034 0.042542636
-0.056972962 0.09076495 0.038208976 -0.058715012 -0.013310065 -0.07169778 -0.018578969 0.08159899
-0.057238583 -0.046543755 0.018933203 0.08259315 -0.00011499166 0.078159794 -0.050718535 -0.03341864
-0.07518219 0.06891364 -0.05010659 0.07653466 -0.053752556 -0.026495924 0.006411517 0.07600675
0.09379334 -0.01865505 -0.026592549 0.08585196 0.01466739 -0.079491064 0.10391482 0.036443602
0.03519303 0.08215503 0.043173417 -0.025970416 -0.06713418 -0.06669545 -0.02615037 -0.0403348
0.0178518 -0.06470895 0.042213127 0.05418271 0.06292684 0.09602375 0.029117025 -0.040486768
-0.009085658 0.0017913749 0.07291664 -0.0042711226 0.082241 -0.065763205 -0.006740786 0.031010678
0.060054123 0.027265063 0.032240804 -0.03610554 -0.06096852 -0.027082758 0.08040056 0.07775042
0.052009955 0.029188832 0.011811049 0.022480981 -0.047767203 0.04708524 0.0068416856 0.008157615
-0.003224147 0.07748725 0.036460094 -0.044040173 0.036552493 -0.021986129 0.050278172 0.01714366
-0.020948766 0.008195969 0.09020819 -0.05872005 0.0068691745 0.033071548 0.076132596 -0.021183232
0.061713073 0.04931368 -0.07208004 -0.038120463 -0.010999317 0.032774176 0.020155609 0.010134128
0.059858836 0.018026302 0.0271865 -0.004998428 0.027684309 -0.0059657395 0.037171945 -0.025044428
-0.07870958 0.016444843 0.07006392 0.059945468 0.04196754 -0.009186067 -0.024014505 -0.010078661
-0.03515842 -0.07728614 0.003647633 -0.08533088 0.022855602 0.022965955 0.008458755 0.074787356
-0.08568723 -0.01590269 -0.025845 -0.019340616 0.06278624 -0.068962075 0.015173532 0.043136287
-0.06512143 0.016534284 0.056873407 -0.011773864 -0.039040823 -0.011282347 0.04114583 0.025781715
0.07246669 -0.004389158 -0.013138329 -0.035155877 -0.0075147077 0.012180163 -0.05292817 0.0048013837
-0.02151628 0.057089567 -0.050072707 -0.04916393 0.07130789 0.02711198 -0.07705356 -0.012841359
-0.012021989 -0.08724034 0.059059434 -0.042108472 0.06265903 -0.048125546 0.07327616 -0.061965715
0.0045156428 0.06314 0.038639035 -0.083151646 -0.01403939 -0.041462563 -0.021627942 -0.08750197
-0.0690752 0.020324599 -0.06293897 -0.06811483 0.014120656 -0.062511675 -0.06806235 -0.011376652
0.076499134 -0.083323814 0.0768033 -0.06527842 -0.06953436 -0.060014814 -0.06838877 -0.08715462
-0.07272697 0.06703921 -0.008028723 -0.06565215 0.0248627 -0.04995642 -0.09141058 -0.0022319956
0.01602806 -0.074817374 0.029003566 -0.04861103 0.04627891 -0.023216696 0.0521383 -0.05996986
0.07670644 0.008387875 0.04703718 0.00669235 0.073864326 -0.093424276 0.01602951 0.010983955
0.009134275 0.05610758 -0.05917096 -0.051503807 -0.08272951 0.016216336 -0.085452184 0.048571326
-0.07726236 0.05820164 -0.049164545 -0.04100632 -0.03720574 -0.057686336 -0.09221029 -0.060515948
00000000: 09bd 8d3d 9441 17bd 8b73 81bd ef34 ad3d
00000010: 98fb 3cbd ec16 013d 09ff 9cbd 9863 6c3d
00000020: 3130 c43d fe42 953d e010 98bd f583 7ebd
00000030: 129d 8fbd 7123 85bd 160f a73c a519 073d
00000040: 819d 4e3d 2ea4 82bc 2d50 1cbd 1c7d c63d
00000050: fff9 64bd dbc2 823d fe45 ac3d 2b57 ba3d
00000060: fb5d 7bbd d42f 043d 0de1 2bbd 6e8d 5bbd
00000070: 4003 413d a280 75bc 9f95 26bd 3041 2e3d
00000080: 7b5c 69bd f9e2 b93d 0481 1c3d 277f 70bd
00000090: 7512 5abc 49d6 92bd ec32 98bc 5f1d a73d
000000a0: 0173 6abd aaa4 3ebd ce19 9b3c 9926 a93d
000000b0: ad27 f1b8 3e12 a03d 3dbe 4fbd fce1 08bd
000000c0: 1ff9 99bd 9822 8d3d 913c 4dbd 34be 9c3d
000000d0: a42b 5cbd fb0d d9bc b417 d23b 6da9 9b3d
000000e0: b916 c03d 7ad2 98bc 9ed8 d9bc 27d3 af3d
000000f0: 7e4f 703c 36cc a2bd 4bd1 d43d e345 153d
00000100: 9126 103d e540 a83d 9cd6 303d e9bf d4bc
00000110: a57d 89bd a097 88bd 4d39 d6bc 1a36 25bd
00000120: f03d 923c 2086 84bd ace7 2c3d b0ee 5d3d
00000130: c9df 803d 1aa8 c43d d486 ee3c 74d5 25bd
00000140: 03dc 14bc 91cc ea3a 5255 953d c6f4 8bbb
00000150: f86d a83d dcae 86bd d0e1 dcbb 1b0a fe3c
00000160: 50fb 753d fb5a df3c ef0e 043d 67e3 13bd
00000170: 20ba 79bd a9dc ddbc 0ca9 a43d 9d3b 9f3d
00000180: 6408 553d 6b1d ef3c 2183 413c 092a b83c
00000190: 8ba7 43bd 74dc 403d 3830 e03b 84a7 053c
000001a0: 364c 53bb a3b1 9e3d 2e57 153d 7863 34bd
000001b0: 11b8 153d 411c b4bc 7cf0 4d3d dc70 8c3c
000001c0: bf9c abbc 6348 063c 12bf b83d 6f84 70bd
000001d0: d016 e13b 0876 073d 68eb 9b3d 7588 adbc
000001e0: d9c6 7c3d 24fd 493d b39e 93bd 3424 1cbd
000001f0: 7b36 34bc 373e 063d 601d a53c 9d09 263c
00000200: 8a2e 753d e5ab 933c 39b6 de3c dac9 a3bb
00000210: 34ca e23c 407c c3bb 9c41 183d f929 cdbc
00000220: 7d32 a1bd 56b7 863c ac7d 8f3d 6189 753d
00000230: 28e6 2b3d 2881 16bc 11ba c4bc f820 25bc
00000240: 4702 10bd 3248 9ebd 200d 6f3b f5c1 aebd
00000250: ac3b bb3c 1923 bc3c 9796 0a3c 1d2a 993d
00000260: c97c afbd 5c46 82bc e5b8 d3bc 3670 9ebc
00000270: 1296 803d fd3b 8dbd 689a 783c adaf 303d
00000280: 625e 85bd e872 873c 17f4 683d 2ae7 40bc
00000290: 45e9 1fbd 98d9 38bc 8888 283d 2d34 d33c
000002a0: 6a69 943d edd2 8fbb 2542 57bc 9cff 0fbd
000002b0: f03d f6bb 4e8f 473c 35cb 58bd ed54 9d3b
000002c0: e942 b0bc c0d6 693d 0a19 4dbd 1e60 49bd
000002d0: df09 923d f119 de3c 42ce 9dbd 9064 52bc
000002e0: e0f7 44bc 10ab b2bd 4ee8 713d ef79 2cbd
000002f0: 6153 803d 4b1f 45bd d011 963d c3cf 7dbd
00000300: f5f7 933b 8b4f 813d f743 1e3d 694b aabd
00000310: 7805 66bc a6d4 29bd 152d b1bc 3c34 b3bd
00000320: 4c77 8dbd c67f a63c 26e6 80bd ca7f 8bbd
00000330: 535a 673c 1f06 80bd 4664 8bbd 2365 3abc
00000340: 94ab 9c3d ada5 aabd 0c4b 9d3d b1b0 85bd
00000350: 0868 8ebd 18d2 75bd 690f 8cbd 1f7e b2bd
00000360: e1f1 94bd da4b 893d e88a 03bc a274 86bd
00000370: dcac cb3c 1a9f 4cbd 7835 bbbd ac46 12bb
00000380: 474d 833c da39 99bd e398 ed3c 5c1c 47bd
00000390: f48e 3d3d f130 bebc f88e 553d f5a2 75bd
000003a0: 4418 9d3d 4c6d 093c 0faa 403d 804b db3b
000003b0: 2e46 973d 3a55 bfbd 5250 833c 0cf6 333c
000003c0: eda7 153c 10d1 653d 405d 72bd a8f5 52bd
000003d0: 176e a9bd 1fd8 843c 8e01 afbd baf2 463d
000003e0: ba3b 9ebd d864 6e3d c360 49bd 3ef6 27bd
000003f0: 0c65 18bd 8248 6cbd c0d8 bcbd 92df 77bd

edge_mlp.0.bias f4 [64]
0.0750874 0.010388424 0.0011198171 0.010027398 0.046229474 0.0048755994 -0.009555803 -0.06377883
0.08096556 -0.06266819 -0.07402224 0.06156162 -0.092359744 -0.03994104 0.020383885 -0.043991957
-0.029755948 -0.0040787137 0.005367379 -0.010906208 0.07695277 0.0817476 -0.070560075 -0.034988042
0.08582378 -0.060008287 -0.0148776015 -0.011835643 -0.0046800007 0.0885448 -0.06077032 0.086177394
-0.05866738 0.066931084 -0.058691848 0.09510306 0.050371625 -0.008999047 -0.0069771055 -0.080080576
0.046360735 0.047270183 0.025603538 0.041632045 -0.07668489 0.017129757 -0.007215997 -0.09082585
-0.047411926 -0.05969708 -0.056546856 -0.075300716 -0.020253614 -0.031446684 0.04598841 0.028510844
0.05864514 -0.08103119 0.048147123 0.016529119 0.06809109 0.056295924 0.075551145 -0.071343064
00000000: 6cc7 993d 3534 2a3c d4c6 923a f549 243c
00000010: 1e5b 3d3d 7ec3 9f3b f18f 1cbc 7a9e 82bd
00000020: 46d1 a53d 2e58 80bd f998 97bd 0a28 7c3d
00000030: 1b27 bdbd 3799 23bd 1bfc a63c e930 34bd
00000040: bfc2 f3bc bba6 85bb d7e0 af3b f4af 32bc
00000050: 6a99 9d3d 496b a73d cd81 90bd 9f4f 0fbd
00000060: 61c4 af3d 40cb 75bd 2fc1 73bc 49ea 41bc
00000070: b15a 99bb fa56 b53d 4dea 78bd c67d b03d
00000080: 354d 70bd 2a13 893d dd66 70bd 65c5 c23d
00000090: 7a52 4e3d bd70 13bc 34a0 e4bb 4901 a4bd
000000a0: c1e4 3d3d 619e 413d 83be d13c 5d86 2a3d
000000b0: f80c 9dbd b453 8c3c 2c74 ecbb e702 babd
000000c0: 0233 42bd ed84 74bd ad9d 67bd 4337 9abd
000000d0: e8ea a5bc 3dce 00bd 585e 3c3d 938f e93c
000000e0: e335 703d aef3 a5bd eb35 453d 1368 873c
000000f0: 5773 8b3d 8e96 663d 8fba 9a3d 501c 92bd

edge_mlp.2.weight f4 [1, 64]
0.09328506 -0.054162398 -0.09027104 -0.062715545 -0.11262831 0.005850166 -0.051773403 -0.0018879101
0.12279682 0.092114225 -0.11647082 0.096838675 -0.0065528355 0.06323976 0.13479313 0.020538967
-0.0893982 0.011364666 -0.09731447 0.006916719 0.12542248 0.027710494 -0.04132169 0.04136124
0.012766411 0.070865475 -0.033803806 -0.076651186 0.067475885 0.034428574 0.060679387 0.018062385
-0.10512816 0.082488835 0.051892355 0.09070815 0.010204935 0.124274164 0.103392735 -0.11009351
-0.06258825 -0.006078141 -0.059614938 -0.10306702 -0.02290561 -0.084267296 -0.021930892 -0.059143055
0.014717425 -0.014930387 -0.0030569155 0.03479944 -0.016217321 0.13123722 0.10474775 0.10920359
0.09858753 -0.020512342 -0.027495502 -0.1012399 0.014655338 -0.04844721 -0.03696862 0.046945892
00000000: 3d0c bf3d 64d9 5dbd 06e0 b8bd 0271 80bd
00000010: aca9 e6bd c0b2 bf3b 5910 54bd c073 f7ba
00000020: e67c fb3d 62a6 bc3d 4188 eebd 5b53 c63d
00000030: 2bb9 d6bb d983 813d 3607 0a3e 5641 a83c
00000040: 6716 b7bd dd32 3a3c cf4c c7bd a5a5 e23b
00000050: c06e 003e 1e01 e33c ef40 29bd 676a 293d
00000060: 352a 513c eb21 913d dc75 0abd 4cfb 9cbd
00000070: cc30 8a3d fa04 0d3d f38a 783d 91f7 933c
00000080: 6f4d d7bd e8ef a83d 148d 543d 32c5 b93d
00000090: 9a32 273c 7483 fe3d 92bf d33d b578 e1bd
000000a0: 452e 80bd 242b c7bb cb2e 74bd cd14 d3bd
000000b0: 8ca4 bbbc 5594 acbd 6aa8 b3bc fd3f 72bd
000000c0: 5b21 713c 959e 74bc 8856 48bb dc89 0e3d
000000d0: 30da 84bc 0d63 063e fd85 d63d 22a6 df3d
000000e0: 42e8 c93d 8009 a8bc 3f3e e1bc dd56 cfbd
000000f0: f11c 703c 9570 46bd 686c 17bd 564a 403d
